source/models/SNN_nIMU_v0/SNN_NIMU_snnTorch.pth (torch, 11872 bytes, 6 tensors)

weight f4 [64, 16]
00000000: 66b7 5639 d07c 8b3d 5f15 6a3e 595f 9cbc
00000010: fed2 2bbc fce8 66bc c0bd 3cbe 83c4 803d
00000020: dad2 6b3d a04b 023e 91f8 18be e122 c63c
00000030: 60ba 23be 6c4f 133e 22cb 2b3e 17c7 703e
00000040: 5bd3 79be 66a2 85bc 0a19 16bd b939 913d
00000050: 1fda 603e ba04 953e e490 b43c 886e 093e
00000060: edf5 00bc eca4 56be 3533 d03c bb0f 403e
00000070: 81d4 223e 2829 2fbe a530 063e 62a6 3c3d
00000080: d2c4 56bd f40e 1a3e ed95 34bd 7eff 633e
00000090: ef0a 28be dd63 3f3e 920f 4f3e 731b 61be
000000a0: 1b89 2dbd ffc5 abbd 3058 413d c5de b9bc
000000b0: e10f 58be b12e 48be 4c93 57be fdf4 ca3d
000000c0: 3dd3 79be 4c25 cb3d 5d12 fd3d ac6d 583e
000000d0: f0b0 33bd 3fc6 ea3d c272 463d 3393 cdbd
000000e0: 9acd 02be a822 013e c5b7 5d3e da82 73bc
000000f0: 6bf5 f43d a00b a6bd ecbf 6dbe f10d e83d
00000100: f818 81bd e6bb 2bbb c3d8 afbd 50bd f43c
00000110: d286 27be 1e76 4abd 3fad ab3c a291 fbbd
00000120: d552 753e 34fc 8f3c d130 8bbe 24e0 bfbb
00000130: 8395 9e3d 03f4 423e b8dc 1b3e 83b0 813e
00000140: ed58 043e 2728 5ebe 57e0 143e fa74 74be
00000150: 5f04 e2bd 3223 243d ffdb 09be 1cfc 963c
00000160: 5c77 18be 0800 923c ca8e f03d 2c76 9c3e
00000170: c7dd 783e dc64 313e 52a3 30be c601 1cbe
00000180: 9f59 bfbc 4329 73bc 9eb0 30be 48f8 123c
00000190: 7282 46be 9081 11be bbd7 1abe 27e6 173e
000001a0: 926d 5cbe ccee 7ebd 8798 bb3d 255c 4bbd
000001b0: 27f6 8b3e 6382 5fbc a16f 0bbe a13e f8bd
000001c0: 7657 243e eeb4 233d 878e fc3d 1b70 943d
000001d0: 0382 be3c bb69 2abe fd6d cd3d e25c 81be
000001e0: bd50 fa3d b908 d63d a3a3 76bd 2e1d 0ebe
000001f0: d255 15be c3f7 d7bd e56e cdbc b5b7 2ebd
00000200: 4632 cdbd f22d 45be 0cc5 ca3d 6c12 9c3e
00000210: 3610 043e 119d ce3d 990e 47bb 10e1 00bd
00000220: f764 5a3e 9e01 f63d 8ff2 3cbe cbd1 69be
00000230: 9a01 463e 62cb 283e 6ba8 51bd 183f 16be
00000240: 6a60 6cbd 8454 bb3c 1872 b03d fbe9 163e
00000250: b0e9 cbbd 1b0d 033c f0e5 263e 39bb 5dbe
00000260: d8fd dd3c 76e8 ac3d da4a 6bbe 0e1b 12be
00000270: 3d94 0cbc 17ea 9fbe 30f2 69be 3fcb 46be
00000280: 0919 99bd 7a4e 8f3e 1ed4 eabd 058b 93bc
00000290: cb2e 443e 91e3 20be 3a01 cbbc 6ba2 04be
000002a0: 0c6b 1c3c d837 9fbe a6cb 5ebe 22aa 40be
000002b0: 403c d63d 6c48 89bd 7811 653e 575c 7bbd
000002c0: 7b9c 5dbe 00fb 23bc 2f3f 44be a7b2 acbd
000002d0: 6d9e 333e 8aea 8c3c c6b5 7cbc 4c66 b6bc
000002e0: bdcd 863e 5893 28be 76a5 2ebe 6b94 15be
000002f0: b58c 99be 0b13 1cbc 414f fdbd 65f6 55be
00000300: c22d 09bd 4026 1cbe a1c5 ab3c 427c 943d
00000310: 236f 4dbc 0c60 213e da8f a83e add8 a13e
00000320: 70dc 553e a58a 3fbe 9680 6ebe 779a 52be
00000330: 270a 42bd b163 0ebe b317 51be ca9c 24bd
00000340: 550d 60be 93f3 f5bd d748 7b3e af4b 60bd
00000350: 93c2 3dbc 106f 30be 433d bcbc 3a9b 4c3e
00000360: 642b 11be 8b0e 25be 057a bfbd b381 90bc
00000370: 3d0a dd3d 6dda 163e 64b1 1e3e af03 60bb
00000380: c364 4c3e 7957 8e3d 7c8b 853e 5d3a 08be
00000390: 5e69 13be 0394 0bbd b490 83be 6edc 423e
000003a0: 87fd a43d 40e9 113e ea21 22be 4009 8abe
000003b0: 3cb4 24bc a9ca 3fbe 59b3 19bd 12a4 46be
000003c0: b26b 30be ab68 913e f0e4 823d c9d3 b2bd
000003d0: b57c e2bc 29a9 993d 5eb4 3b3e f009 2bbd
000003e0: 114e e9bd d266 3dbc 7e38 5c3d d3ed 9ebd
000003f0: 8cc3 783d 699e 133e b076 263e 579e 9abd
0.00020476952 0.068109155 0.22859715 -0.019088434 -0.010487316 -0.014093634 -0.18431759 0.06287482
0.05757413 0.12724161 -0.1493857 0.024186553 -0.15989065 0.14385766 0.16776708 0.23513447
-0.24397032 -0.01631279 -0.036644973 0.07091088 0.21958207 0.2910517 0.022041745 0.1342107
-0.007871133 -0.2096135 0.025415042 0.18756 0.15901376 -0.17105544 0.13104494 0.046057113
-0.052433796 0.15044767 -0.044088293 0.22265431 -0.16410421 0.18690439 0.20220783 -0.21983127
-0.042367082 -0.08387374 0.047203243 -0.022689233 -0.21099807 -0.19549061 -0.21052283 0.09910009
-0.24396987 0.09919223 0.12357018 0.21135587 -0.043869913 0.11463594 0.048449285 -0.10037842
-0.12773743 0.12610877 0.21652134 -0.01486274 0.11960872 -0.08107686 -0.23217744 0.11330784
-0.063035905 -0.0026204525 -0.08586266 0.029875427 -0.16360024 -0.04942905 0.020956634 -0.12283637
0.23957379 0.017576315 -0.2718568 -0.005855577 0.07743361 0.19038396 0.15220916 0.2532998
0.12924547 -0.21695004 0.14538704 -0.23872748 -0.1103599 0.040072627 -0.13462828 0.018430762
-0.14889282 0.01782228 0.11745985 0.30558908 0.24303351 0.17323631 -0.17249802 -0.15235052
-0.023358164 -0.0148413805 -0.17254874 0.008970328 -0.19385698 -0.1420958 -0.15121357 0.1483389
-0.21526173 -0.062239453 0.09159952 -0.049648423 0.27336237 -0.013641926 -0.13616802 -0.121213205
0.16048989 0.03996747 0.123318724 0.07247945 0.023255354 -0.16641895 0.10030744 -0.25266176
0.12222431 0.104508825 -0.06021465 -0.13878319 -0.14583519 -0.10545304 -0.025077293 -0.042655665
-0.100193545 -0.19255808 0.09900865 0.30482805 0.12896809 0.10088552 -0.003037369 -0.031464636
0.21327578 0.12012027 -0.18451904 -0.22833936 0.19336548 0.16483834 -0.051186007 -0.14672506
-0.057709135 0.022867449 0.08615512 0.14737694 -0.09956682 0.00799873 0.16298652 -0.21653451
0.027098581 0.08442776 -0.22977772 -0.14268133 -0.008580265 -0.31233284 -0.22846293 -0.1941347
-0.07475478 0.2798956 -0.114662394 -0.018010626 0.19158475 -0.1571181 -0.024780858 -0.12952583
0.009547006 -0.31097293 -0.21757373 -0.188149 0.104607105 -0.067032665 0.22369945 -0.06136736
-0.21641724 -0.0100085735 -0.19164728 -0.08432513 0.17540903 0.01720168 -0.015424198 -0.022265576
0.2632884 -0.16462457 -0.17055306 -0.14607398 -0.29990163 -0.009526025 -0.12368632 -0.20894773
-0.033490904 -0.15248966 0.02096826 0.07250263 -0.012538704 0.15759295 0.3292225 0.31610623
0.20884871 -0.18705232 -0.23291239 -0.20566736 -0.047372963 -0.13905217 -0.20419197 -0.04018859
-0.21880086 -0.12009349 0.24539505 -0.054759677 -0.011582035 -0.17229867 -0.02297843 0.19981089
-0.14176708 -0.16118829 -0.09349445 -0.01763997 0.107929684 0.1473176 0.15497357 -0.0034181883
0.19960313 0.06950278 0.2608298 -0.13303514 -0.14395663 -0.0340767 -0.25696337 0.190294
0.08056169 0.14249134 -0.1583325 -0.26960182 -0.010052737 -0.18729652 -0.037524555 -0.19398525
-0.17228583 0.28400168 0.063913226 -0.08731801 -0.027647356 0.07502968 0.18330523 -0.041757524
-0.11391843 -0.011560159 0.053764813 -0.07760205 0.060733363 0.14415897 0.16256213 -0.07549732

bias f4 [64]
00000000: f2a5 c53c ccec 223e ce2e 303e c544 533b
00000010: d911 093d fd5f 633e 0786 0abd 87f9 50bd
00000020: 7664 e2bd 3aae 8d3e 69b2 0d3e 7638 903e
00000030: c5a0 6b3e bf75 573d 04c3 4dbd 4569 29be
00000040: 8e54 46bd 7c92 45bc ec33 18be 780d 46be
00000050: 31d3 fa3c 4dfa 583e 85a2 7a3e 451b 0ebe
00000060: c9e1 743d ca27 7bbe a8c4 4fbe 1e8f 0dbe
00000070: ff82 40be f387 e5bc 2af1 cc3a 8af3 f2bd
00000080: 5262 1b3e bb03 b93d c570 683d 6e4b 103e
00000090: f95d 383c 7bec 4abe 2fd9 4b3e 2fad 2d3d
000000a0: 9e3a c53d 282e afbd 349c e03c ab05 c03d
000000b0: 517b c9bc ff7c 23be 42d8 4cbe 8137 023e
000000c0: dc17 e8bd 4a6b 583e cd8c 503d 91f0 0ebe
000000d0: 7c8f cc3d ade8 febd 9d13 5e3e 5f0e 60be
000000e0: 0f78 cd3d 4bc7 cb3d 5600 193c a177 2b3e
000000f0: e970 f93d dcfb 09be 896f 10bd 51f2 2c3e
0.02412698 0.15910643 0.17205355 0.0032237035 0.033464286 0.22204585 -0.033819225 -0.051019218
-0.11054318 0.27671987 0.1383759 0.28168076 0.23010547 0.052602526 -0.05023481 -0.16544063
-0.04842048 -0.01205885 -0.14863557 -0.19341075 0.030618282 0.21189232 0.24476059 -0.1387759
0.059785638 -0.24526897 -0.20289862 -0.13824126 -0.18799971 -0.028018927 0.0015635837 -0.11862858
0.15174225 0.09033915 0.05674817 0.14091274 0.011252874 -0.19816773 0.19907068 0.04240149
0.09630321 -0.085537255 0.027418233 0.09376081 -0.024594935 -0.15965651 -0.20004371 0.12716486
-0.11332676 0.21134678 0.050915528 -0.13958956 0.09988305 -0.12446723 0.2168717 -0.21880482
0.10032665 0.099501215 0.009338459 0.16744854 0.12179739 -0.13474983 -0.03526262 0.16889311

reset f4 [1, 64]
00000000: 0000 0000 0000 803f 0000 0000 0000 0000
00000010: 0000 0000 0000 0000 0000 0000 0000 0000
00000020: 0000 0000 0000 0000 0000 803f 0000 0000
00000030: 0000 0000 0000 0000 0000 0000 0000 0000
00000040: 0000 0000 0000 0000 0000 0000 0000 0000
00000050: 0000 0000 0000 0000 0000 0000 0000 0000
00000060: 0000 0000 0000 0000 0000 0000 0000 0000
00000070: 0000 0000 0000 0000 0000 0000 0000 0000
00000080: 0000 0000 0000 0000 0000 0000 0000 0000
00000090: 0000 0000 0000 0000 0000 0000 0000 803f
000000a0: 0000 803f 0000 0000 0000 0000 0000 0000
000000b0: 0000 0000 0000 0000 0000 0000 0000 0000
000000c0: 0000 0000 0000 0000 0000 0000 0000 0000
000000d0: 0000 0000 0000 0000 0000 0000 0000 0000
000000e0: 0000 803f 0000 0000 0000 803f 0000 0000
000000f0: 0000 0000 0000 0000 0000 0000 0000 0000
0.0 1.0 0.0 0.0 0.0 0.0 0.0 0.0
0.0 0.0 1.0 0.0 0.0 0.0 0.0 0.0
0.0 0.0 0.0 0.0 0.0 0.0 0.0 0.0
0.0 0.0 0.0 0.0 0.0 0.0 0.0 0.0
0.0 0.0 0.0 0.0 0.0 0.0 0.0 1.0
1.0 0.0 0.0 0.0 0.0 0.0 0.0 0.0
0.0 0.0 0.0 0.0 0.0 0.0 0.0 0.0
1.0 0.0 1.0 0.0 0.0 0.0 0.0 0.0

weight f4 [4, 64]
00000000: 2123 d63d f865 983c d772 863d 43ee 833d
00000010: 95a3 c33a 0bcc 95bb 3af5 d6bd 5240 133e
00000020: 7bda c73d f6e9 1c3e 6a12 023d 3084 cdbd
00000030: bb5e cabc 4e18 8cbc 3c54 073e c701 893d
00000040: a57f b2bc edb0 ed3d 02be 2fbc 8aec ba3c
00000050: 1bdb 92bd 5374 1a3e 9086 1c3e f2ac 8a3b
00000060: 4d1f aabc 7c3c 9ebd 40ff 9cbc 29dd 5c3e
00000070: 3e3a d1bc 4b06 13bd 82cb f33d 20e6 b73c
00000080: 8073 80bd 03fc ea3c 1b09 c0bd d453 e23d
00000090: 15b2 113c fa51 3abe 99db 2cbd 646c 6d3e
000000a0: 71b1 2b3c afc4 2cbd b282 343e da76 1cbd
000000b0: 6701 c5bd d5a7 293d a6bb d9bd eee2 4c3e
000000c0: 4d71 123e 4a50 05be 77be 8f3d 5a19 df3d
000000d0: 69e2 87bd 0572 6fbd 599d e73d e1be 563d
000000e0: 486d 583c 3a6e e93d d08f 46bd 0282 763c
000000f0: b735 f93c 93a6 9b3d 4ce0 88bd 70b7 90bd
00000100: b66c 223d c26f 273e f9f1 f1bc 318b 873d
00000110: 041c b33a bb0c 8fbd 856c 3cbd ecf3 cdbc
00000120: cf90 693e 08e8 9f3d e046 533c 751b 483e
00000130: 85da e83d 7862 193d 5d95 543c b135 cb3c
00000140: c5b7 6abd 2973 d23d 427a 54bd 8f86 c8bd
00000150: a583 e83c 22e3 c63d 8752 f1bc e033 b33d
00000160: 49b7 8e3d 3355 1dbc 635a 7cbd e69c 87bd
00000170: 0756 3e3d b900 5fbd b434 de3d b675 e53d
00000180: 4210 6abd 8791 1b3e f513 973d ffc9 953c
00000190: 4433 1a3d 56d1 fdbd 16ea 033d 38a4 58bd
000001a0: 7035 073c 8cb6 b9bd f118 83bd 2bc7 4c3d
000001b0: 7c6e 3fbd e2de 353d b8f0 a5bd d5d2 d33d
000001c0: 504a b7bc 16f6 043e 5e65 b23b b570 bcbc
000001d0: 12a3 2e3e fb97 ecbd 4b3a 5c3a f807 85bc
000001e0: 6cb5 8ebd c6da 0c3d 8dfd 44bd 1a99 c1bd
000001f0: 0326 013e d55b 933c 6669 b5bd d3be 653d
00000200: 88c1 6c3c 0a38 e33c 28e3 733d a49b e03d
00000210: 525c a0bc 40c0 a73d d9ff 843d 18d4 e6bd
00000220: 41ce 60bd 6116 23bb 2c29 1ebe c75a 893c
00000230: e924 8fbc 82be 42bd 52dc 53bd 61f0 9d3d
00000240: 5cd1 4c3d 5987 353d 919a 823d 0084 283e
00000250: 557a f8bc c838 0bbe 1f3c 243c 6a42 973c
00000260: 4955 30bd f738 e43d d7c8 563d d393 92bd
00000270: d837 953c 7a7a b6bd 0536 c63d 3e88 ac3d
00000280: 0637 82bd 3283 013d 414f 0abe acfa 893c
00000290: fcec 10be ac5e 11be 774d bf3d f2a5 98bd
000002a0: 2afe a43d c8a1 323e 6bcf 333d ba51 5d3e
000002b0: a7c6 c9bd 21cf 363e 6629 8abd 1b63 39bc
000002c0: d723 333d e27d 2e3e aae5 b7bd ebeb 5e3d
000002d0: a2aa 92bd d66d 5cbd 8f89 9f3b 62be 0a3d
000002e0: 4885 1b3e 976a b0bc e112 bfbc aab4 903c
000002f0: 9736 2fbd 0d88 143e 2a88 8d3d bf86 15bd
00000300: 4d7c ea3d 78bc 6b3d 82b5 91bd 743c a0bc
00000310: 0af4 513e 6cd0 733c 0a1e b53d e598 c23d
00000320: 6eff 9b3d a5a4 02be 320c fabb 3e25 04be
00000330: fdd0 adbd 2341 7d3d 6137 2dbd 25d9 8b3d
00000340: 7ce6 543e cc50 1bbe 0cd4 93bd 495a 9dbd
00000350: 8a45 c63d faa9 9cbc 299e d0bc 0cca 8a3b
00000360: d218 933d d756 223d 4831 063d 94a1 903d
00000370: d6f3 d7bc 67e1 7d3e ed8b 09be c6b5 dd3d
00000380: 957c 9a3c a421 45bd 18d3 87bd e0c9 e83d
00000390: 90bc 9bbd fc19 9e3c 2aa3 b03d ef51 273d
000003a0: b45a 12bd 3e4c a63d 9c7a b1bd 94bd ad3d
000003b0: 6643 b1bd 0010 4d3e b452 9dbd 31bc edbc
000003c0: c956 19bc 07a4 92bd f7f4 53bc b1ce 6c3d
000003d0: 842b d23d d147 6a3e 8200 ac3d 3e9d f23c
000003e0: a33e a83d 9b2c b03d 4298 083e 89d8 88bd
000003f0: 62ba f03d 9e82 9cbd 80ee 363d 7dd6 84bd
0.10455919 0.01860331 0.06564873 0.06441929 0.001492607 -0.004571443 -0.10495992 0.14380005
0.09758469 0.15323624 0.031755842 -0.100349784 -0.024703374 -0.017101433 0.13215727 0.06689792
-0.021789381 0.116060115 -0.010726454 0.022817869 -0.07170697 0.15083437 0.15285707 0.0042320425
-0.020766879 -0.0772638 -0.019164681 0.21568741 -0.025540467 -0.035894673 0.119040504 0.0224486
-0.0627203 0.028684622 -0.09376737 0.11051145 0.008892556 -0.18195334 -0.042201612 0.23185879
0.010479317 -0.04217976 0.17627981 -0.038199283 -0.09619408 0.041419823 -0.10631494 0.20008442
0.14301033 -0.13018909 0.0701875 0.10893507 -0.06634981 -0.058458347 0.113093086 0.05242813
0.013209648 0.11397977 -0.048476994 0.015045645 0.030421121 0.07600131 -0.06683406 -0.07066238
0.039654456 0.16351226 -0.029534327 0.066183455 0.0013664966 -0.0698485 -0.04600193 -0.025140725
0.22809146 0.07807928 0.012895316 0.19541724 0.11369804 0.037447423 0.012975064 0.024805875
-0.057304163 0.10275871 -0.051874407 -0.0979129 0.028383086 0.09711291 -0.029458297 0.08750129
0.069685526 -0.009602833 -0.061609637 -0.06621723 0.04646876 -0.05444405 0.10849896 0.11204092
-0.05714441 0.15192233 0.073768534 0.018284796 0.037646547 -0.12393443 0.032205664 -0.052890986
0.008252487 -0.09068021 -0.064012416 0.04999463 -0.046736225 0.04440201 -0.08102554 0.103429474
-0.022374302 0.129845 0.005444213 -0.023002962 0.17054394 -0.115524255 0.00084010203 -0.016239151
-0.06968197 0.034388326 -0.048093367 -0.0945303 0.12612157 0.017988125 -0.08857994 0.056090187
0.014450438 0.027736682 0.059542805 0.10967186 -0.019575272 0.08190966 0.064941116 -0.112709224
-0.0548842 -0.0024885165 -0.15445393 0.016766919 -0.017473655 -0.047544964 -0.051723786 0.07711864
0.05000435 0.04431853 0.063771375 0.16456604 -0.03033177 -0.13595879 0.0100241 0.018464286
-0.043050084 0.11143678 0.05243763 -0.071571015 0.018215105 -0.08910079 0.09678272 0.08424424
-0.06358151 0.03161926 -0.13506795 0.016843162 -0.14152902 -0.1419627 0.09340947 -0.074535266
0.080562904 0.17444527 0.04389898 0.21613207 -0.09852343 0.17852451 -0.067461774 -0.0113151325
0.04373535 0.17040208 -0.08979352 0.054424208 -0.07161452 -0.053815685 0.004868693 0.03387297
0.15187562 -0.021535201 -0.023324432 0.017664272 -0.04277667 0.14505024 0.06910737 -0.036505457
0.1144949 0.057552785 -0.07114698 -0.019560076 0.2050325 0.014881235 0.0884362 0.095018186
0.07617079 -0.1275812 -0.0076308483 -0.12904832 -0.08487127 0.061829697 -0.04228914 0.068285264
0.20791048 -0.1516754 -0.07218179 -0.07683236 0.09681232 -0.01912402 -0.025466042 0.0042355116
0.071824685 0.0396336 0.032761842 0.070620686 -0.026361387 0.24793015 -0.13432284 0.10825686
0.018858233 -0.048127785 -0.0663206 0.113666296 -0.07604325 0.0192995 0.08624871 0.040849622
-0.035731032 0.08120011 -0.08665964 0.08483425 -0.08655433 0.20025635 -0.0768179 -0.0290204
-0.00935907 -0.07160192 -0.012936822 0.057814304 0.10262206 0.22878958 0.08398534 0.029615995
0.08215072 0.08602258 0.13339332 -0.06681926 0.117543 -0.07642101 0.044661045 -0.06486223

bias f4 [4]
00000000: fd1d 8ebd 6e7e 83bd bc14 d53d 208c 783d
-0.069393136 -0.06420599 0.104043454 0.06068051

reset f4 [1, 4]
00000000: 0000 0000 0000 0000 0000 0000 0000 0000
0.0 0.0 0.0 0.0
